xfields-main-main/results/juice/flows.tflite (tflite, 961968 bytes, 18 tensors)

gen_flows/layer_0/pad_layer_1 f2 [1, 3, 3, 2]
000000 00 00 00 00 00 40 00 00 00 00 00 00 00 00 00 40
       0.0 0.0 2.0 0.0 0.0 0.0 0.0 2.0
000010 00 40 00 40 00 00 00 40 00 00 00 00 00 40 00 00
       2.0 2.0 0.0 2.0 0.0 0.0 2.0 0.0
000020 00 00 00 00
       0.0 0.0

gen_flows/layer_0/conv2d/Conv2D f2 [128, 1, 1, 1]
000000 1d 23 1b 1f 63 28 57 91 3a a3 4b 12 96 21 85 95
       0.01389 0.00694 0.03427 -0.000652 -0.014114 0.000768 0.01091 -0.001348
000010 54 94 1c 93 5e 82 b5 0e dc 8d 88 a9 7e 0d a1 22
       -0.001057 -0.000868 -3.61e-05 0.0004094 -0.0003576 -0.0432 0.0003352 0.01295
000020 78 21 16 26 dc 9e 94 8e 10 a7 af 03 01 9f 3f 90
       0.01068 0.02377 -0.0067 -0.0004015 -0.02759 5.62e-05 -0.00684 -0.0005183
000030 00 a3 0c 0e dd 94 c5 25 ff a3 ab 1e ac 8c 41 21
       -0.01367 0.000369 -0.001187 0.02254 -0.01562 0.00651 -0.0002851 0.01026
000040 39 04 90 28 1f 0e 17 1c c6 8c 11 1c 72 8f 2a 0b
       6.443e-05 0.03564 0.0003736 0.003994 -0.0002913 0.00397 -0.0004544 0.0002186
000050 6c 20 39 25 06 a4 f8 8f 8b 87 98 90 95 23 81 88
       0.00864 0.0204 -0.01572 -0.0004864 -0.0001151 -0.0005608 0.01481 -0.0001374
000060 99 0e 2e 1b 6f 87 c4 a2 8e 8c f3 21 55 94 bb 18
       0.0004027 0.003506 -0.0001134 -0.013214 -0.000278 0.01162 -0.001058 0.00231
000070 41 85 44 8e d1 8a 22 90 ff 8a ae 84 f3 21 8b a7
       -8.017e-05 -0.0003824 -0.000208 -0.0005045 -0.0002135 -7.14e-05 0.01162 -0.02946
000080 47 87 57 00 0e 20 89 25 d6 9e 53 a3 db 25 f5 1e
       -0.00011104 5.2e-06 0.00792 0.02162 -0.006676 -0.014305 0.02287 0.006794
000090 cb 84 48 a4 a6 83 57 8f 88 28 14 93 48 06 4c 90
       -7.313e-05 -0.01672 -5.57e-05 -0.000448 0.0354 -0.000864 9.584e-05 -0.0005245
0000a0 ae 22 f1 1d d3 a4 f5 21 e4 24 e4 a8 bc 02 e9 24
       0.01305 0.005802 -0.01884 0.011635 0.0191 -0.0382 4.17e-05 0.01918
0000b0 33 92 f4 24 21 07 15 8e df 09 cf 85 42 1e ca 8e
       -0.0007567 0.01935 0.0001088 -0.0003712 0.0001792 -8.863e-05 0.00611 -0.0004144
0000c0 1e 28 98 22 ca a4 83 83 c8 1d 38 8d 09 24 00 99
       0.03217 0.01288 -0.0187 -5.36e-05 0.005646 -0.0003185 0.01576 -0.002441
0000d0 50 91 80 22 9f 98 7c 84 fc a4 80 8d 66 8e 8d 92
       -0.0006485 0.012695 -0.002256 -6.84e-05 -0.01947 -0.0003357 -0.0003905 -0.0007997
0000e0 00 95 b5 83 67 1f 60 1e 2d 8e d5 a5 62 1f 24 1e
       -0.001221 -5.656e-05 0.00723 0.006226 -0.000377 -0.02278 0.00721 0.005997
0000f0 b5 88 43 a2 d3 9e 1c 16 37 90 5d 22 b3 8c ab 20
       -0.0001436 -0.01223 -0.006664 0.001492 -0.0005145 0.01243 -0.0002868 0.00912

gen_flows/layer_1/conv2d/Conv2D f2 [128, 3, 3, 130]
000000 6f 1e 2f a2 c1 1c d5 a2 cc 26 55 24 0b a2 c3 a5
       0.006283 -0.01208 0.004642 -0.01334 0.02655 0.01692 -0.0118 -0.0225
000010 f9 a7 aa 1f 5d 2a 24 1d 7b 21 c6 a7 a1 a4 06 26
       -0.03114 0.007484 0.0497 0.00502 0.010704 -0.03036 -0.01808 0.02353
000020 89 a5 20 28 5a 1a b4 96 80 26 f6 a6 14 27 5c a2
       -0.02162 0.03223 0.003101 -0.0016365 0.02539 -0.02719 0.02765 -0.01242
000030 b7 9d b7 a2 49 23 9c a3 68 24 c6 a7 73 1d 82 a1
       -0.00558 -0.013115 0.01423 -0.01486 0.01721 -0.03036 0.00532 -0.01076
000040 7f a2 f2 27 7a a4 ec 20 7c 9b 86 1b ad 21 32 23
       -0.01269 0.03104 -0.01749 0.00961 -0.003654 0.003674 0.011086 0.01405
000050 f1 a2 ee a5 8d a3 05 a1 44 20 63 93 6d 9f 1c 9b
       -0.01356 -0.02316 -0.01475 -0.0098 0.00833 -0.0009017 -0.00725 -0.003471
000060 0e a9 cb 23 83 a0 85 a2 54 28 f3 a2 ed a0 61 24
       -0.0395 0.01522 -0.00881 -0.01273 0.0338 -0.01357 -0.00962 0.0171
000070 37 26 44 21 8b 9c f4 a5 3e 20 3c a1 b9 28 35 21
       0.02428 0.010284 -0.004436 -0.02325 0.008286 -0.01022 0.0369 0.01017
000080 38 9e 15 28 e2 26 06 22 3b 24 c3 a7 1c 22 b4 a4
       -0.006073 0.0319 0.02689 0.011765 0.01653 -0.03032 0.01193 -0.01837
000090 69 a0 10 a3 7a 20 be 21 85 27 cc 1d 39 26 44 28
       -0.00861 -0.013794 0.00874 0.011215 0.02937 0.00566 0.0243 0.03333
0000a0 2e 20 03 27 b0 a6 b0 20 31 24 f8 18 9b 29 22 24
       0.00816 0.02739 -0.02612 0.009155 0.01637 0.002426 0.0438 0.01614
0000b0 d7 a8 1c a4 69 9e 69 25 18 aa 59 a0 8b a3 f3 24
       -0.0378 -0.01605 -0.00626 0.02113 -0.0476 -0.00849 -0.01473 0.01933
0000c0 6e 1b e5 20 58 a7 2c 24 26 23 7a a9 11 a0 66 a2
       0.003628 0.00956 -0.02869 0.0163 0.01396 -0.0428 -0.00794 -0.0125
0000d0 b9 13 a9 24 d4 a1 d4 2a 01 a5 a0 1f 9e 20 09 1e
       0.0009427 0.0182 -0.01138 0.05334 -0.01955 0.007446 0.00902 0.005894
0000e0 15 a1 cf 25 02 1f e1 a9 f3 25 de 24 f8 a1 3d a7
       -0.009926 0.02269 0.006844 -0.04593 0.02324 0.01901 -0.01166 -0.02827
0000f0 dc a9 64 9f ce 25 c2 aa 2d 1c c4 19 3e 23 dc 9f
       -0.04578 -0.007217 0.02267 -0.0528 0.004078 0.002815 0.014145 -0.007675
000100 84 26 46 02 0a a9 46 a1 2b 17 0c 24 20 1c ca a2
       0.02545 3.47e-05 -0.03937 -0.0103 0.00175 0.01581 0.00403 -0.01326
000110 68 24 8d 28 39 a3 64 9e f0 a6 33 14 2d ac 01 26
       0.01721 0.03555 -0.01411 -0.00624 -0.0271 0.001025 -0.06525 0.02345
000120 5c 99 99 25 13 9d a3 a4 e3 a4 84 9c 97 27 c0 26
       -0.002617 0.02187 -0.004955 -0.01811 -0.01909 -0.00441 0.02965 0.02637
000130 27 24 56 a0 3b 1c b8 a8 92 1e 3e 9f e6 a0 71 a8
       0.01622 -0.00847 0.00413 -0.03687 0.006416 -0.007072 -0.00957 -0.0347
000140 d7 27 c7 99 a5 a0 ee 9e 37 a4 e6 21 59 25 c3 92
       0.03062 -0.002821 -0.00907 -0.006767 -0.01646 0.01152 0.02089 -0.0008254
000150 7e 1c c9 20 54 9b b3 98 2a 22 4a 95 bd 25 0c 24
       0.004387 0.009346 -0.003578 -0.002295 0.01204 -0.001291 0.02242 0.01581
000160 4b 1c 20 10 d7 22 ba a5 e2 20 46 28 61 a5 8e 26
       0.004192 0.0005035 0.01336 -0.02237 0.00954 0.0334 -0.02101 0.0256
000170 a9 25 63 28 55 1c 43 27 3f a6 21 25 3d a4 3f a9
       0.02211 0.03427 0.00423 0.02837 -0.0244 0.02003 -0.01656 -0.041
000180 ac 98 8a 19 50 91 d0 a5 73 a4 6c a7 77 15 42 09
       -0.002281 0.002705 -0.0006485 -0.0227 -0.01738 -0.02899 0.001334 0.0001605
000190 53 99 59 23 44 a5 7b 9e 77 a9 a2 a3 44 a1 e0 9a
       -0.0026 0.01435 -0.02057 -0.00633 -0.0427 -0.01491 -0.010284 -0.003357
0001a0 97 22 b9 94 ff a7 23 25 fc 1c 7e 95 78 9a 03 1d
       0.01287 -0.001153 -0.03123 0.02007 0.004868 -0.001341 -0.003159 0.004894
0001b0 cb 28 19 a6 a3 a2 a5 03 af a6 9c 24 dd 1e 27 a7
       0.03745 -0.02382 -0.01296 5.56e-05 -0.02611 0.018 0.006702 -0.02794
0001c0 75 a1 fa 1d 8e a9 b1 9e 1e a9 42 29 9b 25 ed 22
       -0.01066 0.005836 -0.0434 -0.006535 -0.03998 0.04108 0.0219 0.01353
0001d0 78 22 f9 a4 bf 25 7c a7 61 93 c2 25 66 a8 e0 28
       0.012634 -0.01942 0.02245 -0.02924 -0.0009007 0.02249 -0.03436 0.0381
0001e0 3c 25 36 25 73 13 02 21 e1 a0 00 a3 2f 94 04 27
       0.02045 0.02036 0.0009093 0.00978 -0.00953 -0.01367 -0.001021 0.0274
0001f0 89 25 bb 1c e4 1f 70 23 15 20 3f 1c cf a0 66 27
       0.02162 0.00462 0.007706 0.01453 0.00797 0.004147 -0.00939 0.0289

gen_flows/layer_2/conv2d/Conv2D f2 [128, 3, 3, 128]
000000 d2 20 75 27 4c aa ce 18 c4 22 5f 29 93 a0 4b 9d
       0.009415 0.02913 -0.0492 0.002346 0.013214 0.04196 -0.008934 -0.00517
000010 33 a5 ed a2 d5 27 d7 9d 4d 1d 88 27 15 20 99 a8
       -0.02031 -0.01353 0.0306 -0.005703 0.005177 0.02942 0.00797 -0.03592
000020 2b a1 6c a4 a1 29 28 9c 4e 28 0e 1a 76 27 2b 17
       -0.01009 -0.01727 0.04398 -0.00406 0.03363 0.002956 0.02914 0.00175
000030 9f a2 2e 28 ac 1c a3 16 71 aa 11 a7 f2 a5 e5 a3
       -0.01293 0.03265 0.004562 0.00162 -0.05032 -0.0276 -0.02322 -0.01542
000040 f9 16 c0 a0 45 28 d9 a4 79 26 de 12 af 2a 1c a0
       0.001702 -0.00928 0.03336 -0.01894 0.02528 0.0008383 0.05222 -0.008026
000050 06 26 17 a5 13 27 9b 25 4f 29 bf a6 c2 18 d2 1c
       0.02353 -0.01988 0.02763 0.0219 0.04147 -0.02635 0.002323 0.004707
000060 01 20 92 1a fb 24 d5 a4 78 26 53 25 8f 24 87 9c
       0.00782 0.003208 0.01945 -0.01888 0.02527 0.0208 0.0178 -0.00442
000070 7f 1f d0 1f 48 26 87 a4 87 19 ea a8 14 a6 77 23
       0.00732 0.00763 0.02454 -0.01768 0.002699 -0.0384 -0.02374 0.01458
000080 f3 9b f2 21 99 17 08 16 dd 98 f5 1f b5 27 f9 1c
       -0.003881 0.01161 0.001855 0.001472 -0.002375 0.00777 0.0301 0.004856
000090 fd 99 45 29 48 9b 13 28 20 a5 b1 25 3a 24 b8 a1
       -0.002924 0.04117 -0.003555 0.03183 -0.02002 0.02223 0.01651 -0.01117
0000a0 40 22 05 1e 15 a0 e3 a8 6d a4 2f a6 ec 29 62 27
       0.01221 0.00588 -0.00797 -0.03818 -0.01729 -0.02415 0.04626 0.02884
0000b0 5b 1c 1a a8 d4 a0 ff 9f b5 1e ee a6 70 a0 4f 21
       0.004253 -0.03204 -0.00943 -0.00781 0.00655 -0.02707 -0.00867 0.01037
0000c0 92 2c 3d 28 48 a3 33 a8 b0 29 37 26 c4 99 18 1e
       0.0714 0.0331 -0.01422 -0.0328 0.04443 0.02428 -0.002815 0.00595
0000d0 d9 24 d6 19 45 9e 98 23 6c 95 ae 24 1c 23 f2 1d
       0.01894 0.00285 -0.006123 0.01483 -0.001324 0.01828 0.013885 0.005806
0000e0 2d 1d e2 1e 2e a6 6a 24 3f 03 34 9d c6 1d 27 20
       0.005054 0.00672 -0.02414 0.01724 4.953e-05 -0.00508 0.00564 0.00811
0000f0 cc a1 64 1e 6c 24 b1 24 83 a5 0e 92 9e a5 18 a9
       -0.01132 0.00624 0.01727 0.01833 -0.02153 -0.000739 -0.02194 -0.0398
000100 ab a4 a0 26 23 14 20 a0 d7 9f 00 a2 36 a9 bc 22
       -0.01823 0.02588 0.00101 -0.00806 -0.007656 -0.01172 -0.0407 0.01315
000110 c9 9d 58 a6 60 21 90 a0 cd 9e 45 20 36 1d 73 a8
       -0.00565 -0.02478 0.0105 -0.00891 -0.00664 0.00834 0.00509 -0.03476
000120 b3 a2 d4 a3 68 a5 57 8e 2d 29 7e 1a dd a2 56 1e
       -0.013084 -0.01529 -0.02112 -0.000387 0.04044 0.00317 -0.013405 0.006187
000130 c7 24 6e a2 63 23 f3 9d c0 a9 2c a8 87 9e 16 a4
       0.01866 -0.01256 0.01443 -0.00581 -0.04492 -0.0326 -0.006374 -0.01596
000140 20 24 b2 24 17 9e 77 21 f3 1e 51 9e df 9c 13 27
       0.01611 0.01834 -0.005947 0.01067 0.006786 -0.00617 -0.004757 0.02763
000150 eb a3 67 a1 63 a4 1d 24 d8 20 23 a4 2d 29 c3 a2
       -0.015465 -0.01055 -0.01714 0.01607 0.00946 -0.01616 0.04044 -0.01321
000160 29 23 c4 27 ab 25 a3 a4 01 9f b1 24 3c 25 9a a3
       0.013985 0.03033 0.02214 -0.01811 -0.00684 0.01833 0.02045 -0.01485
000170 aa 9e 03 9d d7 24 00 22 dd 18 5a a4 39 99 f5 a6
       -0.006508 -0.004894 0.0189 0.01172 0.002375 -0.017 -0.00255 -0.02718
000180 16 27 0c a4 7f 9d 4f a4 de 9a 4d 1d 79 a1 7a 25
       0.02768 -0.01581 -0.005367 -0.01683 -0.003353 0.005177 -0.01069 0.0214
000190 62 a3 28 27 dc 29 de 8d e7 a3 56 23 05 26 f5 26
       -0.01442 0.02795 0.04578 -0.000358 -0.015434 0.01433 0.02351 0.02718
0001a0 cd a8 2e a8 49 1f ae a6 fb a9 82 1d 42 a1 c2 25
       -0.0375 -0.03265 0.007114 -0.0261 -0.04672 0.00538 -0.01027 0.02249
0001b0 17 a8 52 1b 5a 27 a6 a2 22 a1 c0 a8 0e 9e 91 1d
       -0.03195 0.003574 0.02872 -0.012985 -0.010025 -0.0371 -0.005913 0.005436
0001c0 06 24 d0 a4 0f a2 65 a8 3d 94 f9 a1 ad a4 38 ab
       0.01572 -0.0188 -0.01183 -0.03433 -0.001035 -0.011665 -0.01826 -0.0564
0001d0 10 a1 ec a4 59 a5 91 1f 9b 26 8f 2b 1f 9c 91 21
       -0.00989 -0.01923 -0.02089 0.00739 0.0258 0.05905 -0.004025 0.01087
0001e0 f8 22 2a a1 c6 20 63 a4 b6 97 ab 25 54 a8 c4 a0
       0.01361 -0.010086 0.00932 -0.01714 -0.001883 0.02214 -0.0338 -0.00931
0001f0 de a5 e7 23 a4 12 b4 25 3f a9 1a a6 d3 a1 ce 26
       -0.02292 0.015434 0.0008106 0.02228 -0.041 -0.02383 -0.011375 0.02658

gen_flows/layer_3/conv2d/Conv2D f2 [64, 3, 3, 128]
000000 89 a9 ef 9b 36 aa 7d ab 82 18 cc a8 22 aa 44 a0
       -0.04324 -0.003874 -0.04852 -0.0585 0.002201 -0.03748 -0.0479 -0.00833
000010 1d a0 51 27 c1 23 22 a5 d2 27 84 28 6c a8 f0 9d
       -0.00803 0.02858 0.015144 -0.02005 0.03055 0.03528 -0.03455 -0.0058
000020 ef 25 3b 24 13 a6 e1 27 f4 a9 e4 20 4b a6 8d a4
       0.02318 0.01653 -0.02373 0.03078 -0.0465 0.00955 -0.02458 -0.01778
000030 76 a1 f5 a6 d7 a4 c7 25 d8 17 1a 22 a1 a1 2c a1
       -0.010666 -0.02718 -0.0189 0.02257 0.001915 0.01192 -0.010994 -0.0101
000040 bc 28 37 1b 70 9e 96 a8 a7 21 da 29 e1 14 90 28
       0.037 0.003523 -0.006287 -0.03583 0.01104 0.04572 0.001191 0.03564
000050 bd a0 9d 22 6e 24 6a a5 5e a7 14 14 5c 29 45 23
       -0.009254 0.01292 0.0173 -0.02115 -0.02878 0.000996 0.04187 0.0142
000060 44 a0 54 1f 38 9e 7a a1 b6 aa cf 24 55 9c cc 20
       -0.00833 0.007156 -0.006073 -0.0107 -0.05243 0.01878 -0.00423 0.00937
000070 90 9d 59 21 89 1c c1 25 82 20 83 2b 1b 29 8e 91
       -0.005432 0.010445 0.00443 0.02248 0.008804 0.0587 0.0399 -0.000678
000080 22 9c 3b 9e 8b aa 14 9d 16 24 8a 1a 36 a0 77 a1
       -0.004036 -0.006084 -0.05112 -0.00496 0.01596 0.003193 -0.008224 -0.01067
000090 9e 24 ae 1e e1 23 f6 1f 4f 1c 7f 21 3d a3 01 a7
       0.01804 0.006523 0.01539 0.007774 0.004208 0.010735 -0.01414 -0.02736
0000a0 6f 28 c7 24 6b a3 b9 29 19 a0 80 a1 ba a4 3e a9
       0.03464 0.01866 -0.01449 0.0447 -0.008 -0.01074 -0.01846 -0.04095
0000b0 8c 1b 45 96 4d 23 68 9b 37 a8 1d 24 9e 25 02 22
       0.003685 -0.001531 0.01426 -0.003616 -0.03293 0.01607 0.02194 0.011734
0000c0 e3 a4 92 21 d9 a2 1b 29 4e a0 26 a6 53 27 f9 a3
       -0.01909 0.01088 -0.013374 0.0399 -0.00841 -0.02402 0.02861 -0.01557
0000d0 d1 24 ab 9c dd 1b 8f a7 df a8 c1 23 13 24 0f a1
       0.01881 -0.00456 0.00384 -0.02953 -0.03806 0.015144 0.01591 -0.00988
0000e0 53 a6 30 98 1e 1e 4e a8 79 a6 48 9d 5e 25 d5 9a
       -0.0247 -0.002045 0.005974 -0.03363 -0.02528 -0.005157 0.02097 -0.003336
0000f0 1f a8 bd 28 16 a4 7b 9e 4f 19 1e 2c cf 1b 3b aa
       -0.0322 0.03702 -0.01596 -0.00633 0.002592 0.06433 0.003813 -0.04868
000100 f9 a1 53 a8 a8 92 55 29 80 26 f7 a3 cd a1 02 20
       -0.011665 -0.03378 -0.0008125 0.04166 0.02539 -0.01556 -0.01133 0.00783
000110 e5 17 e5 1b 22 28 79 a8 dc a1 5d 22 87 a1 35 20
       0.001927 0.003855 0.0323 -0.03494 -0.011444 0.01243 -0.010796 0.00822
000120 01 2b a4 a0 0a a9 02 a4 b2 a5 f1 1b d5 a4 69 20
       0.05472 -0.00906 -0.03937 -0.01566 -0.02225 0.003878 -0.01888 0.00861
000130 4f 24 ef 20 45 a3 4d 20 1b 9d 41 28 e8 91 76 24
       0.01683 0.009636 -0.0142 0.0084 -0.004986 0.03323 -0.000721 0.01743
000140 88 20 28 a8 8d a0 c3 a3 ec 25 3e a9 b2 a6 83 25
       0.00885 -0.03247 -0.00889 -0.01516 0.02313 -0.04095 -0.02615 0.02153
000150 b7 99 db 18 64 a0 bf 28 39 a3 5b a4 87 24 e7 a8
       -0.00279 0.00237 -0.008575 0.03708 -0.01411 -0.01701 0.01768 -0.0383
000160 6f a1 68 aa e0 29 4c 1c c5 a3 5f 16 b0 27 e3 9a
       -0.01061 -0.05005 0.0459 0.004196 -0.015175 0.001555 0.03003 -0.003363
000170 aa 27 4e a4 9b a8 06 a1 33 25 43 23 54 27 18 19
       0.02994 -0.01682 -0.03598 -0.00981 0.02031 0.01418 0.02863 0.002487
000180 4e 9a 6a 1e 91 18 c2 a8 ed 9f a5 a2 cd 26 8a 26
       -0.003078 0.006264 0.00223 -0.03717 -0.00774 -0.01298 0.02657 0.02554
000190 48 28 75 99 d5 a9 9a 25 51 a8 30 22 70 a9 d7 9f
       0.03345 -0.002665 -0.04556 0.02188 -0.03372 0.012085 -0.04248 -0.007656
0001a0 32 a4 df 1e a7 a1 21 0e 17 24 22 a6 0e 21 dd 25
       -0.01639 0.00671 -0.01104 0.000374 0.01598 -0.02396 0.00987 0.0229
0001b0 0d 1e e2 98 ff a7 8d a1 67 a1 6f a4 f1 23 88 22
       0.00591 -0.002384 -0.03123 -0.01084 -0.01055 -0.01732 0.01551 0.01276
0001c0 86 a8 64 95 c3 24 3d 25 ec 27 8b a0 76 29 1d 24
       -0.03534 -0.001316 0.0186 0.02046 0.03094 -0.00887 0.04266 0.01607
0001d0 62 2b 1a a3 7e a2 21 1d 7e 26 b4 28 68 0e 09 27
       0.05768 -0.01387 -0.01268 0.00501 0.02536 0.03674 0.000391 0.02748
0001e0 6c a5 75 9e f8 93 83 1e 48 ac 28 9d bf 1c ea a9
       -0.02118 -0.006306 -0.0009727 0.00636 -0.0669 -0.005035 0.004635 -0.0462
0001f0 29 a5 57 a6 87 20 64 a8 4e a0 f0 1e 21 1c d7 a3
       -0.02016 -0.02477 0.00884 -0.0343 -0.00841 0.006775 0.004032 -0.01531

gen_flows/layer_4/conv2d/Conv2D f2 [64, 3, 3, 64]
000000 c6 26 db 27 16 29 31 24 71 29 25 9a d4 20 bc a6
       0.02646 0.03069 0.03973 0.01637 0.0425 -0.003 0.00943 -0.0263
000010 01 a2 8d a4 4a a7 fd a8 c7 29 4a 9e 16 9f 96 9d
       -0.01173 -0.01778 -0.02847 -0.03897 0.04514 -0.00614 -0.00692 -0.005455
000020 ed 9d 19 a8 47 25 78 9f fa a3 00 a5 f8 1d 25 a6
       -0.005787 -0.032 0.02061 -0.007294 -0.01558 -0.01953 0.00583 -0.024
000030 72 a2 67 a7 ec 9c cc 27 2a a2 65 a8 57 21 21 a0
       -0.01259 -0.02892 -0.004807 0.03046 -0.01204 -0.03433 0.01043 -0.008064
000040 23 a8 a9 a8 39 99 3a 9b 0c 22 92 a5 89 a6 74 9e
       -0.03232 -0.0364 -0.00255 -0.003529 0.01181 -0.02176 -0.02553 -0.0063
000050 35 20 fe a1 93 21 f4 1f 80 20 d6 a2 40 1c fb 25
       0.00822 -0.0117 0.01089 0.007767 0.00879 -0.01335 0.00415 0.02336
000060 15 29 22 28 58 a4 c1 15 51 29 68 25 00 28 2b 1d
       0.0397 0.0323 -0.01697 0.001405 0.04153 0.02112 0.03125 0.005047
000070 c3 23 e7 a7 2a 97 05 1f 37 1c bf a9 ce 1c 8b 23
       0.01516 -0.03087 -0.001749 0.006855 0.004116 -0.0449 0.004692 0.01473
000080 8d 25 17 25 11 a1 b0 13 17 24 bf a8 98 21 67 0a
       0.02168 0.01988 -0.009895 0.0009384 0.01598 -0.03708 0.010925 0.0001954
000090 95 21 68 0c fa a9 20 a9 d3 2a 77 21 f0 a3 b8 25
       0.0109 0.000269 -0.0467 -0.04004 0.0533 0.01067 -0.0155 0.02234
0000a0 a7 24 59 a9 98 24 f4 a7 dc 25 ab 9c 71 1e 1e a6
       0.01817 -0.04178 0.01794 -0.03107 0.02289 -0.00456 0.00629 -0.0239
0000b0 7f 23 e3 aa a0 24 9f 28 64 21 24 9e 95 a9 f6 28
       0.01464 -0.0538 0.01807 0.0361 0.01053 -0.005997 -0.0436 0.03876
0000c0 c4 a3 11 1e ce a1 0b 9b 86 23 d9 a2 bd a8 06 29
       -0.01517 0.005924 -0.01134 -0.003439 0.014694 -0.013374 -0.03702 0.03925
0000d0 82 22 fe a5 1e a5 83 22 d5 9f ca aa e3 24 5b 26
       0.01271 -0.0234 -0.01999 0.01272 -0.00765 -0.05304 0.01909 0.02483
0000e0 3e a2 88 28 11 a6 a5 24 d5 29 8f a0 92 0f c5 a6
       -0.01219 0.0354 -0.0237 0.01814 0.04556 -0.0089 0.000462 -0.02644
0000f0 79 96 ab 27 3a 9e e2 a5 20 29 c3 18 ad 28 cb 9e
       -0.00158 0.02995 -0.00608 -0.02298 0.04004 0.002325 0.03653 -0.006634
000100 4c 2a d1 27 35 25 cb a3 1f a0 bd a8 39 28 0f a3
       0.0492 0.03053 0.02034 -0.01522 -0.00805 -0.03702 0.033 -0.01379
000110 4b 22 4f 26 08 a6 46 97 aa 29 7c 25 c8 a6 0f 20
       0.01229 0.02464 -0.02356 -0.001776 0.04425 0.02142 -0.02649 0.00793
000120 08 24 96 ab 24 28 63 a3 88 25 34 24 a4 9f 08 27
       0.01575 -0.05927 0.03235 -0.01443 0.0216 0.01642 -0.00746 0.02747
000130 d2 25 49 a7 f8 a4 d4 a7 d1 a4 ad aa 0c a7 ee 28
       0.02274 -0.02846 -0.01941 -0.03058 -0.01881 -0.05215 -0.02753 0.0385
000140 40 a7 9d 20 d1 a1 38 24 b7 25 22 a2 fc aa 5b 28
       -0.02832 0.00901 -0.01136 0.01648 0.02232 -0.01198 -0.05457 0.03403
000150 cb 24 82 a7 b9 1c 0d a4 39 9f e6 a7 09 08 e8 24
       0.01872 -0.02933 0.004612 -0.01582 -0.007053 -0.03085 0.0001231 0.01917
000160 39 a7 70 21 a9 a7 45 1f a9 2c c5 a6 76 9d 9c 1f
       -0.02821 0.01062 -0.02992 0.0071 0.0728 -0.02644 -0.005333 0.00743
000170 23 23 ad 26 3c 94 43 9a 46 28 8b 21 88 a4 bd a5
       0.01394 0.02608 -0.001034 -0.003057 0.0334 0.010826 -0.0177 -0.02242
000180 7a 27 fd a4 a5 1c e1 a4 52 1c 90 a9 a9 26 54 26
       0.0292 -0.01949 0.004536 -0.01906 0.00422 -0.04346 0.02602 0.02472
000190 e8 a2 82 24 31 a4 df a8 bd 1d 64 18 32 24 72 23
       -0.01349 0.01761 -0.01637 -0.03806 0.005604 0.002144 0.01639 0.01454
0001a0 67 27 d6 a4 23 21 c1 27 ec 23 bb 9f e8 a2 17 a4
       0.02892 -0.01889 0.01003 0.03029 0.01547 -0.00755 -0.01349 -0.01598
0001b0 38 22 79 a6 3b aa 61 26 65 a1 7d a1 5c a3 44 21
       0.012146 -0.02528 -0.04868 0.02492 -0.01054 -0.01072 -0.01437 0.010284
0001c0 e3 a2 be a4 28 a7 a2 a0 c3 a6 fe a7 84 a7 63 a6
       -0.01345 -0.01852 -0.02795 -0.00905 -0.02641 -0.03122 -0.02936 -0.02495
0001d0 54 25 36 98 c0 a9 c7 25 59 a0 bc a5 ac a0 ff 21
       0.02081 -0.002056 -0.04492 0.02257 -0.00849 -0.0224 -0.009125 0.01171
0001e0 86 8c f6 1e d9 22 65 20 6a 23 d3 a6 ff a5 17 8f
       -0.000276 0.006798 0.013374 0.00858 0.01448 -0.02666 -0.02342 -0.0004327
0001f0 09 25 53 a2 3f 23 18 a4 da 24 88 16 78 a1 5a 1d
       0.01967 -0.01235 0.01415 -0.01599 0.01895 0.001595 -0.01068 0.005226

gen_flows/layer_5/conv2d/Conv2D f2 [64, 3, 3, 64]
000000 ea 2a 0a 28 bb a6 0b a5 3c a7 79 1d c4 a2 48 19
       0.05402 0.03156 -0.02629 -0.0197 -0.02826 0.005344 -0.013214 0.002579
000010 9f 28 c4 a4 93 26 06 a3 d4 28 dc 21 62 a0 34 13
       0.0361 -0.01862 0.02568 -0.01372 0.03772 0.011444 -0.00856 0.0008793
000020 d4 a8 c7 a3 c1 18 a5 25 b5 ab 95 a5 0e 9d fe 2a
       -0.03772 -0.01519 0.002321 0.02205 -0.0602 -0.0218 -0.004936 0.05463
000030 3d a5 5e 26 d2 9d 5e 26 b4 aa 46 a3 c0 9e ff 27
       -0.02046 0.02487 -0.005684 0.02487 -0.05237 -0.014206 -0.00659 0.03123
000040 2e a6 0d 25 d1 98 3f a5 51 24 4f a0 89 a6 6c 24
       -0.02414 0.01973 -0.002352 -0.0205 0.01686 -0.008415 -0.02553 0.01727
000050 03 9f 08 a3 4e 1c 7a a0 d0 a1 5c a0 d2 9d 34 9f
       -0.006847 -0.01373 0.004204 -0.00874 -0.01135 -0.008514 -0.005684 -0.007034
000060 c7 a5 66 23 2b 1a 35 19 f2 1a 2e a1 1c 9f 1f a6
       -0.02257 0.01445 0.003012 0.002542 0.003391 -0.01012 -0.006943 -0.02391
000070 84 20 fd 1b f8 a4 41 1d 31 23 c0 1b 3e 25 e7 1d
       0.00882 0.0039 -0.01941 0.00513 0.014046 0.003784 0.02048 0.005764
000080 1c 29 32 29 80 a8 ac a8 a0 9f 39 9b 19 1b 33 23
       0.03992 0.0406 -0.03516 -0.0365 -0.007446 -0.003527 0.003466 0.01406
000090 45 a0 09 a8 8d a3 35 25 60 23 74 9e 09 19 62 25
       -0.00834 -0.03152 -0.01475 0.02034 0.014404 -0.0063 0.002459 0.02103
0000a0 66 a6 1e 9d 6a 24 28 a0 11 9c 0f a2 d4 a4 b5 29
       -0.025 -0.004997 0.01724 -0.00812 -0.00397 -0.01183 -0.01886 0.0446
0000b0 30 a8 72 22 25 a8 7a 13 47 a0 96 a5 fd 23 cd 27
       -0.0327 0.01259 -0.03238 0.0009127 -0.008354 -0.02182 0.0156 0.03047
0000c0 2a a7 ef 98 27 a8 35 a8 82 a4 91 a4 fe 20 fa 99
       -0.02798 -0.002409 -0.03244 -0.03287 -0.01761 -0.01784 0.00975 -0.002918
0000d0 0f a2 c5 a8 c2 2a bc 96 47 a4 d6 a7 03 22 ab 27
       -0.01183 -0.03726 0.0528 -0.001644 -0.01671 -0.03061 0.01174 0.02995
0000e0 15 25 8a 17 36 aa 9b a2 2f 95 09 26 ef a4 8b a4
       0.01985 0.001841 -0.04852 -0.0129 -0.001266 0.02357 -0.01927 -0.01775
0000f0 47 9f 59 27 7a a7 3b 24 54 a7 c1 a7 0d a8 bd a3
       -0.007107 0.0287 -0.0292 0.01653 -0.02863 -0.03029 -0.03165 -0.015114
000100 8f 1d 29 25 7b 21 2f a9 7d 29 75 1e c7 23 71 24
       0.00543 0.02016 0.010704 -0.0405 0.04288 0.006306 0.01519 0.01735
000110 30 14 31 9d db a8 c8 a0 68 1c e5 a6 50 23 d1 1d
       0.001022 -0.00507 -0.03793 -0.00934 0.004303 -0.02693 0.01428 0.00568
000120 b7 a5 5d 1f 86 26 0f 8f 1b a8 63 a5 25 a9 4f 29
       -0.02232 0.00719 0.02548 -0.0004308 -0.03207 -0.02104 -0.0402 0.04147
000130 ed 9f 01 a8 86 1c cc 27 66 a3 8e a4 73 9a 3d 20
       -0.00774 -0.03128 0.004417 0.03046 -0.01445 -0.01779 -0.003149 0.00828
000140 92 a3 0d a6 37 19 ba a8 10 a8 b9 a4 74 18 1b 25
       -0.014786 -0.02364 0.002546 -0.03693 -0.03174 -0.01845 0.002174 0.01994
000150 e8 ad 5a a6 a2 9a da 97 3b a3 47 a9 6f 19 d9 9c
       -0.0923 -0.02481 -0.003239 -0.001917 -0.01412 -0.04123 0.002653 -0.004734
000160 35 21 e6 25 f4 9f 1f 14 35 25 1a 29 88 22 51 a2
       0.01017 0.02304 -0.007767 0.001006 0.02034 0.03986 0.01276 -0.01234
000170 6d 28 1b 19 96 23 ed a8 ce 9e 20 a8 b0 20 d0 24
       0.03458 0.002493 0.01482 -0.03848 -0.006645 -0.03223 0.009155 0.0188
000180 8a 24 ab 24 ef 9f 2b a2 e8 14 a7 a5 cf a0 3d a2
       0.01773 0.01823 -0.007748 -0.01205 0.001198 -0.02208 -0.00939 -0.012184
000190 98 18 b0 a5 49 a1 9d a5 d0 18 ba a6 f6 20 0d 9d
       0.002243 -0.02222 -0.01032 -0.02193 0.00235 -0.02628 0.00969 -0.004932
0001a0 6e a8 63 25 1f 20 0e a1 d6 1e 34 a1 5e 28 1c 25
       -0.0346 0.02104 0.00805 -0.00987 0.006676 -0.01016 0.03412 0.01996
0001b0 cc 27 3f ab bb 24 01 1d 30 a8 be 1d 63 1d a0 2a
       0.03046 -0.0566 0.01848 0.004887 -0.0327 0.005608 0.00526 0.05176
0001c0 96 a5 25 a7 9f 20 b4 a8 61 a4 39 a2 b0 a9 98 a8
       -0.02182 -0.02791 0.009026 -0.03674 -0.0171 -0.01215 -0.04443 -0.0359
0001d0 7d a9 9c 9f b8 25 e2 a6 2a 23 59 a7 36 20 6e 91
       -0.04288 -0.00743 0.02234 -0.02689 0.01399 -0.0287 0.008224 -0.000663
0001e0 ce 22 79 23 c1 a2 cd a7 1c a4 f5 1c 4b 1d 12 a0
       0.01329 0.014595 -0.01319 -0.03047 -0.01605 0.00484 0.00517 -0.00795
0001f0 6b 9b 9c 21 e5 a4 93 21 72 22 0a 92 8e a8 31 9c
       -0.003622 0.010956 -0.01912 0.01089 0.01259 -0.000737 -0.03558 -0.004093

gen_flows/layer_6/conv2d/Conv2D f2 [32, 3, 3, 64]
000000 09 a7 d5 aa 98 26 4c 25 1e 9e 86 1c d7 12 8d 29
       -0.02748 -0.05338 0.02576 0.02069 -0.005974 0.004417 0.000835 0.04337
000010 fe 26 7a a6 94 23 b3 22 08 ac 49 20 20 a8 96 2a
       0.02731 -0.0253 0.0148 0.013084 -0.063 0.00837 -0.03223 0.05145
000020 0f a1 ae 29 37 1c 20 19 75 27 3a a6 93 a3 b1 a4
       -0.00988 0.04437 0.004116 0.002502 0.02913 -0.02432 -0.01479 -0.01833
000030 24 a7 4b 24 0d aa 25 a4 fb 21 16 a9 6e 21 16 aa
       -0.0279 0.01677 -0.04727 -0.01619 0.01168 -0.03973 0.010605 -0.04755
000040 51 26 b6 a5 29 23 98 23 ad 22 c4 9f ce 28 90 26
       0.02467 -0.02231 0.013985 0.01483 0.01304 -0.007584 0.03754 0.02563
000050 c4 1f 1c a0 97 29 0e 26 f2 a5 c6 a3 19 96 35 a3
       0.007584 -0.008026 0.04367 0.02365 -0.02322 -0.01518 -0.001489 -0.01408
000060 56 aa 74 23 03 28 96 2c 3d a9 50 a6 e3 1c 4a 1e
       -0.0495 0.01456 0.03134 0.07166 -0.04092 -0.02466 0.004772 0.00614
000070 29 24 d0 27 24 15 1d 9d a0 1e 0c a3 31 23 97 24
       0.01625 0.03052 0.001255 -0.004993 0.00647 -0.01376 0.014046 0.01793
000080 3e 20 18 a8 31 2a 8e 1d 80 20 80 28 88 22 e9 a7
       0.008286 -0.03198 0.04837 0.005424 0.00879 0.03516 0.01276 -0.0309
000090 86 26 89 a9 08 a7 c3 27 eb a9 64 28 2d a5 f7 28
       0.02548 -0.04324 -0.02747 0.03032 -0.04623 0.0343 -0.02022 0.0388
0000a0 93 22 51 24 0c 21 c6 27 53 24 60 a9 9c a1 e0 9c
       0.01284 0.01686 0.00986 0.03036 0.01689 -0.042 -0.010956 -0.00476
0000b0 2e 1e eb 28 cd 16 34 20 b6 a5 4a a1 67 a6 24 a6
       0.006035 0.03842 0.00166 0.00821 -0.02231 -0.01033 -0.02501 -0.02399
0000c0 37 a2 68 9f c6 94 78 20 ab a2 2f a9 ce a8 9e 96
       -0.01214 -0.007233 -0.001165 0.00873 -0.01302 -0.0405 -0.03754 -0.001616
0000d0 fa 21 53 1b 8d 26 ec 9c cf 1d a8 a7 67 28 59 a5
       0.01167 0.003576 0.02559 -0.004807 0.005672 -0.0299 0.0344 -0.02089
0000e0 69 1b 8d 9e 94 26 de 23 43 91 2e 1f d2 1b 95 a8
       0.003618 -0.006397 0.0257 0.015366 -0.0006423 0.00701 0.003819 -0.0358
0000f0 b0 15 a9 a6 58 21 39 97 50 9d 86 2a b5 1f a8 24
       0.001389 -0.02602 0.01044 -0.001763 -0.005188 0.05096 0.007526 0.01819
000100 b1 aa 4e a4 d5 2b 72 26 10 28 59 90 95 9f fe 29
       -0.05228 -0.01682 0.0612 0.02518 0.03174 -0.0005307 -0.007404 0.0468
000110 63 9f 15 a1 ed a2 15 27 62 a9 bc 21 0f 22 40 19
       -0.007214 -0.009926 -0.01353 0.02766 -0.04205 0.0112 0.01183 0.002563
000120 0e 19 9e 27 33 25 7c a0 8c 25 22 a4 27 25 79 a8
       0.002468 0.02975 0.02031 -0.00876 0.02167 -0.01614 0.02013 -0.03494
000130 7e a8 da 18 b0 a2 70 a4 a5 91 90 1f cb 94 5e a6
       -0.0351 0.002369 -0.01306 -0.01733 -0.000689 0.007385 -0.00117 -0.02487
000140 52 24 e1 21 47 20 10 24 87 a0 c6 9c a0 a4 b5 24
       0.01688 0.01148 0.008354 0.01587 -0.00884 -0.00466 -0.01807 0.01839
000150 f5 2b b2 a7 aa a6 50 11 84 a5 61 1d 7e 23 de a1
       0.06216 -0.03006 -0.02603 0.0006485 -0.02155 0.005253 0.01463 -0.01146
000160 45 a5 24 27 ee 1e 75 95 0b ab 8e a6 ce a0 ea a3
       -0.02058 0.0279 0.006767 -0.001332 -0.05502 -0.0256 -0.009384 -0.01546
000170 b6 12 59 27 a9 a9 f4 16 25 27 b1 a9 f1 21 fa 26
       0.000819 0.0287 -0.04422 0.001698 0.02791 -0.04446 0.011604 0.02725
000180 73 98 66 9d 34 24 b7 25 b1 1c 55 a6 e3 25 aa a9
       -0.002172 -0.005272 0.01642 0.02232 0.00458 -0.02473 0.023 -0.04425
000190 80 24 57 aa ec 24 0e a5 34 99 3f 24 1e aa ab 2a
       0.01758 -0.04953 0.01923 -0.01974 -0.00254 0.01659 -0.0478 0.0521
0001a0 8f 21 a6 20 29 21 d0 a3 cb 2a 66 25 15 a5 df 27
       0.01086 0.00908 0.01008 -0.01526 0.05307 0.02109 -0.01985 0.03075
0001b0 63 19 f2 25 38 96 5a a4 b8 a8 d2 24 b5 9e f0 a6
       0.00263 0.02322 -0.001518 -0.017 -0.03687 0.01883 -0.00655 -0.0271
0001c0 59 26 d0 a6 f8 24 4f 26 2d 19 41 21 e5 a2 4a 25
       0.0248 -0.02661 0.01941 0.02464 0.002527 0.01026 -0.013466 0.02066
0001d0 44 9f 0d 21 20 24 2b 1e fb a9 30 aa 2b 99 f1 24
       -0.007095 0.009865 0.01611 0.006023 -0.04672 -0.04834 -0.002523 0.0193
0001e0 97 ab cd a4 e1 22 68 28 1e 21 4c 26 7b a7 56 29
       -0.0593 -0.01875 0.013435 0.03442 0.009995 0.0246 -0.02922 0.0417
0001f0 22 a4 23 25 bf 1c df a5 f4 a7 8a 1c 8e 23 41 24
       -0.01614 0.02007 0.004635 -0.02293 -0.03107 0.004433 0.014755 0.01662

gen_flows/layer_7/conv2d/Conv2D f2 [32, 3, 3, 32]
000000 81 9f f9 25 f9 20 81 a5 d0 1a 58 a6 4f 23 cf a8
       -0.007328 0.02333 0.00971 -0.0215 0.003326 -0.02478 0.014275 -0.03757
000010 8f 1c 3d 1e 56 24 6f a8 6a a3 1d 18 6f 1d 52 a2
       0.00445 0.006092 0.01694 -0.03464 -0.01448 0.002008 0.005306 -0.012344
000020 dd 27 08 21 43 9c 5f a7 90 a1 6d 1f 8f a9 44 1f
       0.03072 0.00983 -0.00416 -0.0288 -0.010864 0.00725 -0.04343 0.007095
000030 89 28 2a a2 99 1a ca 27 1e aa 97 a1 9c a3 c7 a3
       0.03543 -0.01204 0.003222 0.03043 -0.0478 -0.01092 -0.01486 -0.01519
000040 b9 25 e5 9b e6 23 89 24 19 a6 d5 1c ad a5 69 01
       0.02235 -0.003855 0.01543 0.01772 -0.02382 0.00472 -0.02217 2.15e-05
000050 41 19 83 22 18 22 b5 a7 b4 a0 e0 28 94 a0 53 a4
       0.002565 0.01272 0.0119 -0.0301 -0.009186 0.0381 -0.00894 -0.01689
000060 26 80 1a 26 36 21 ed a8 c5 29 27 26 ec a5 85 9e
       -2.26e-06 0.02383 0.01018 -0.03848 0.04507 0.02403 -0.02313 -0.006367
000070 81 28 74 a0 8f a5 0e 24 48 1f 76 25 a5 1e 94 a8
       0.0352 -0.0087 -0.02171 0.01584 0.00711 0.02133 0.00649 -0.03577
000080 2c a3 ba 9e 3c 28 97 28 75 a2 33 a4 e3 10 a6 11
       -0.01401 -0.00657 0.03308 0.03586 -0.01261 -0.0164 0.0005965 0.0006895
000090 df 29 d7 9e ca 2b 19 a7 b0 9a fe 26 97 9e ec 24
       0.04587 -0.00668 0.06085 -0.02773 -0.003265 0.02731 -0.006435 0.01923
0000a0 88 98 10 9c 01 a6 09 a6 9a 90 1f 11 0f a4 dc 24
       -0.002213 -0.003967 -0.02345 -0.02357 -0.0005617 0.000625 -0.01585 0.01898
0000b0 60 2c d6 a9 36 a8 99 23 2d 1b 6a a0 9d a6 7e a7
       0.06836 -0.0456 -0.0329 0.01484 0.003504 -0.00862 -0.02583 -0.02927
0000c0 3b 1f 4f 22 44 24 ec 1d 1d 1c f1 a4 f2 a4 03 28
       0.00706 0.01232 0.01666 0.005783 0.004017 -0.0193 -0.01932 0.03134
0000d0 ec 1e a3 22 e9 25 5b a1 0c a9 5f 23 70 26 a2 18
       0.00676 0.01296 0.02309 -0.01046 -0.03943 0.0144 0.02515 0.002262
0000e0 64 a3 10 17 7f a4 b2 9b be a8 14 26 3e 24 0c 26
       -0.014435 0.001724 -0.01756 -0.003757 -0.03705 0.02374 0.01657 0.02362
0000f0 21 21 3e a0 76 a5 0c 28 69 1d 9f 27 71 a4 78 a5
       0.01002 -0.008286 -0.02133 0.03162 0.005283 0.02977 -0.01735 -0.02136
000100 8d a2 48 1b 9a 29 29 a4 3e 9e a7 1c 74 a3 6b ab
       -0.012794 0.003555 0.04376 -0.01625 -0.006096 0.004543 -0.01456 -0.05795
000110 2c 11 dd 26 57 1f 83 23 1b a2 34 a0 24 9f 19 18
       0.0006313 0.02681 0.007168 0.01467 -0.011925 -0.00821 -0.006973 0.002
000120 b4 21 6b 9b 3e a5 ce a5 b8 a2 0b 20 1b a6 50 9a
       0.01114 -0.003622 -0.02048 -0.02267 -0.01312 0.0079 -0.02385 -0.003082
000130 61 28 0b 1f f0 a0 03 a2 50 a6 57 27 b3 24 68 9b
       0.0342 0.006878 -0.00964 -0.01174 -0.02466 0.02867 0.01836 -0.003616
000140 1f 14 8c 1f a5 a5 be 27 24 95 45 a6 4b 98 af 9d
       0.001006 0.00737 -0.02205 0.03024 -0.001255 -0.02449 -0.002096 -0.00555
000150 ed a4 99 9f 41 28 2d a4 49 a4 4e 28 39 22 c0 21
       -0.01924 -0.00742 0.03323 -0.01631 -0.01674 0.03363 0.01215 0.01123
000160 ab 25 96 25 72 20 4e aa bf 20 7d 26 56 9f 4c 28
       0.02214 0.02182 0.00868 -0.04926 0.00927 0.02534 -0.007164 0.03357
000170 4a 9f 28 29 a6 a5 63 93 2a 21 03 16 1a 24 64 a7
       -0.00712 0.04028 -0.02206 -0.0009017 0.010086 0.001468 0.01602 -0.02887
000180 46 24 b7 27 41 24 3a 25 07 a0 ff 18 9d a0 fb 9f
       0.0167 0.03014 0.01662 0.02042 -0.007866 0.00244 -0.00901 -0.007793
000190 49 26 e6 a3 24 28 56 a5 f4 a6 5f 28 f8 15 b8 9c
       0.02455 -0.01543 0.03235 -0.02084 -0.02716 0.03415 0.001457 -0.00461
0001a0 87 1b 5f a1 b0 a4 0d 23 b9 a6 dc 23 da 93 2f 99
       0.003675 -0.01049 -0.01831 0.01377 -0.02626 0.01535 -0.0009584 -0.002531
0001b0 9d a0 91 a0 8c 2a 06 28 2f a8 63 a5 d8 1e c1 a4
       -0.00901 -0.00892 0.05115 0.03143 -0.03268 -0.02104 0.006683 -0.01857
0001c0 71 a4 d7 8d f2 1d de a1 ae 9e 99 ab 49 a6 9a a8
       -0.01735 -0.0003564 0.005806 -0.01146 -0.006523 -0.05936 -0.02455 -0.03595
0001d0 f7 a4 00 9e 1c 22 1a ab 3d 9e 58 28 ff 20 54 29
       -0.0194 -0.00586 0.01193 -0.05548 -0.006092 0.03394 0.00976 0.04163
0001e0 c1 27 d6 2a d3 a5 80 a2 20 0e fd 29 21 9f 73 a2
       0.03029 0.0534 -0.02275 -0.012695 0.0003738 0.04678 -0.00696 -0.012596
0001f0 57 14 1e a7 e2 25 08 26 ce aa ef 22 a0 9e 0e a2
       0.00106 -0.0278 0.02298 0.02356 -0.05316 0.01354 -0.00647 -0.011826

gen_flows/outputs_flows/conv2d/Conv2D f2 [2, 3, 3, 32]
000000 86 23 b6 20 81 25 7d a4 15 23 0c 29 c7 23 6f a3
       0.014694 0.0092 0.0215 -0.01753 0.01383 0.03943 0.01519 -0.01452
000010 a3 27 18 26 75 96 30 27 0c aa 54 21 2c 1c bf 8b
       0.02983 0.0238 -0.001576 0.02808 -0.04724 0.01041 0.004074 -0.0002364
000020 da 23 35 24 19 24 04 21 c8 90 76 a8 48 a6 42 a5
       0.015335 0.01643 0.016 0.009796 -0.0005836 -0.03485 -0.02454 -0.02054
000030 2d 9a 91 24 ac 9d c3 27 08 1e 33 18 63 a4 76 a5
       -0.003016 0.01784 -0.00554 0.03032 0.00589 0.00205 -0.01714 -0.02133
000040 96 27 15 a6 6e 24 c0 a6 91 a8 41 a9 f5 27 62 a5
       0.02963 -0.02376 0.0173 -0.02637 -0.03568 -0.04105 0.03108 -0.02103
000050 ce 25 6a 2a 4d 22 86 2b f8 a7 2a 1f e3 2a ae a0
       0.02267 0.0501 0.01231 0.05878 -0.03113 0.006996 0.0538 -0.00914
000060 7a 29 1a 20 81 27 7e a8 3c 17 3e a7 1f 82 cc a8
       0.0428 0.00801 0.02931 -0.0351 0.001766 -0.02829 -3.237e-05 -0.03748
000070 ac 1d 22 24 c6 a0 f2 27 e5 91 66 10 1f a6 a4 a4
       0.00554 0.01614 -0.00932 0.03104 -0.0007195 0.000537 -0.02391 -0.01813
000080 4a 24 35 1c ce 25 62 9e e7 a5 6e a4 88 a8 8d 26
       0.01675 0.00411 0.02267 -0.006233 -0.02306 -0.0173 -0.0354 0.02559
000090 66 27 12 a9 61 9f 5f a1 4e 99 dc 23 96 a7 18 aa
       0.0289 -0.0396 -0.007206 -0.01049 -0.00259 0.01535 -0.02963 -0.0476
0000a0 6c 24 4b 24 da 9a 88 aa 8a 25 41 24 28 a8 b4 a0
       0.01727 0.01677 -0.003345 -0.05103 0.02164 0.01662 -0.03247 -0.009186
0000b0 cb 20 e0 9c 32 a6 17 20 2c 25 bc 28 48 a4 29 20
       0.00936 -0.00476 -0.0242 0.00799 0.0202 0.037 -0.01672 0.008125
0000c0 63 26 57 21 2d 1c c6 17 77 9d e2 20 44 1c 5b 26
       0.02495 0.01043 0.004078 0.001898 -0.005337 0.00954 0.004166 0.02483
0000d0 c6 98 5b a9 36 18 ff 9f 9f a0 67 1f 20 26 0a 1d
       -0.00233 -0.04184 0.002056 -0.00781 -0.009026 0.00723 0.02393 0.00492
0000e0 75 a1 07 11 22 24 0d 20 67 23 9e 2a 50 0f 77 26
       -0.01066 0.0006137 0.01614 0.00791 0.01446 0.0517 0.0004463 0.02525
0000f0 31 1f e9 a8 37 24 27 9b eb 9f b7 a3 57 a9 7f 9f
       0.007023 -0.03836 0.01646 -0.003492 -0.007732 -0.01507 -0.04172 -0.00732
000100 62 24 8c 1f 41 27 c3 a4 f0 23 cf a6 8f a2 ba 26
       0.01712 0.00737 0.02834 -0.0186 0.0155 -0.0266 -0.01281 0.02628
000110 0a 26 7b 1e c3 a2 ba 23 d0 1f 92 a7 3a 26 d1 24
       0.02359 0.00633 -0.01321 0.01509 0.00763 -0.02957 0.02432 0.01881
000120 d2 18 e9 24 cd 22 ba 21 80 a5 1c 94 ee 22 fc 9a
       0.002354 0.01918 0.01328 0.011185 -0.02148 -0.001003 0.013535 -0.00341
000130 45 24 98 1f de a2 39 1d 10 a5 e2 a3 da 18 93 9d
       0.01668 0.007416 -0.01341 0.0051 -0.01978 -0.015396 0.002369 -0.005444
000140 90 22 b1 a6 77 28 52 a5 91 a6 31 a2 91 21 1e a7
       0.01282 -0.02614 0.03488 -0.02078 -0.02565 -0.01209 0.01087 -0.0278
000150 05 21 95 29 83 24 98 a3 54 a4 9d a7 ed 25 51 a4
       0.0098 0.0436 0.01762 -0.01483 -0.0169 -0.02974 0.02315 -0.01686
000160 de a1 29 90 de 28 a0 22 cd a7 29 aa 85 9f e8 9c
       -0.01146 -0.000508 0.03802 0.01294 -0.03047 -0.04813 -0.007343 -0.00479
000170 c3 a0 36 a2 29 a4 04 2a ba a0 2c 12 78 ab 47 25
       -0.0093 -0.01213 -0.01625 0.047 -0.00923 0.0007534 -0.05835 0.02061
000180 58 98 94 23 50 a4 fb a2 db 29 a9 1c 18 a5 b8 a6
       -0.002121 0.0148 -0.01685 -0.01363 0.04575 0.00455 -0.0199 -0.02625
000190 28 99 44 94 aa a0 52 a2 1e a9 a8 a2 4c 27 80 a2
       -0.002518 -0.001041 -0.00911 -0.012344 -0.03998 -0.013 0.0285 -0.012695
0001a0 92 1d ab 26 73 24 24 1b 0f a1 06 9b 54 27 6e a6
       0.00544 0.02605 0.01738 0.003487 -0.00988 -0.00343 0.02863 -0.02512
0001b0 51 9a 1f 23 8b a3 d3 9c 13 27 75 25 cc a9 83 a7
       -0.003084 0.01391 -0.01473 -0.00471 0.02763 0.02132 -0.0453 -0.02934
0001c0 c7 23 fe a0 e5 9e 26 a4 7f 25 d3 a0 03 1f f4 a4
       0.01519 -0.00975 -0.006733 -0.0162 0.02147 -0.00942 0.006847 -0.01935
0001d0 2e 26 0a 1b 7b 25 db 25 57 a4 13 9f 2e 20 d3 a4
       0.02414 0.003437 0.02141 0.02287 -0.01695 -0.00691 0.00816 -0.01884
0001e0 a9 9e 77 8e 20 1e aa 29 b1 a0 19 a9 43 16 6a 9c
       -0.006504 -0.0003946 0.00598 0.04425 -0.00916 -0.03983 0.001529 -0.00431
0001f0 c1 26 00 21 84 1d 5b 1d 56 1f c0 20 70 a9 e4 a3
       0.02638 0.009766 0.005386 0.00523 0.007164 0.00928 -0.04248 -0.01541

gen_flows/layer_0/conv2d/BiasAdd;gen_flows/layer_2/conv2d/Conv2D;gen_flows/layer_0/conv2d/Conv2D;gen_flows/layer_0/conv2d/bias f2 [128]
000000 de 97 b2 92 6d 94 13 91 1a 1b 20 97 9e a1 5b 98
       -0.001921 -0.0008173 -0.0010805 -0.0006194 0.003468 -0.0017395 -0.01097 -0.002127
000010 75 91 bf 94 14 8e 72 93 2c 8c 8c 97 4c 93 d2 9b
       -0.000666 -0.001159 -0.000371 -0.000909 -0.0002546 -0.0018425 -0.0008907 -0.003819
000020 01 9f 3c 09 4a 90 d4 83 46 8c cc 94 79 91 ca 8f
       -0.00684 0.0001597 -0.0005236 -5.84e-05 -0.0002608 -0.001171 -0.000668 -0.0004754
000030 59 8c da 93 37 8f 04 0a 9a 90 22 a0 62 8e 26 a0
       -0.0002654 -0.0009584 -0.0004404 0.0001836 -0.0005617 -0.00807 -0.0003896 -0.0081
000040 ab 90 20 8f 32 96 2c 9d 43 8f 99 9c ae 91 e8 96
       -0.00057 -0.0004349 -0.001513 -0.00505 -0.0004432 -0.00449 -0.0006933 -0.001686
000050 78 a0 d7 9e bd 94 7d 91 6f 98 17 93 e7 83 37 91
       -0.00873 -0.00668 -0.001157 -0.00067 -0.002165 -0.0008655 -5.955e-05 -0.0006366
000060 21 95 92 9c 33 93 9a 91 d4 8e 22 a2 1e 92 86 9d
       -0.001252 -0.004463 -0.000879 -0.000684 -0.0004168 -0.01198 -0.0007467 -0.005394
000070 27 89 4f 91 f4 91 8b 86 b2 8f a0 90 fa a1 b3 8d
       -0.0001572 -0.000648 -0.0007267 -9.984e-05 -0.0004697 -0.0005646 -0.01167 -0.0003479
000080 49 93 4a 84 26 a0 8a 91 be 91 4e 95 76 98 2c 9f
       -0.0008893 -6.545e-05 -0.0081 -0.000676 -0.000701 -0.001295 -0.002178 -0.007004
000090 25 89 1f 0d 3c 8c 03 91 f8 90 ea 93 86 90 8b 90
       -0.000157 0.0003126 -0.0002584 -0.000612 -0.0006065 -0.000966 -0.000552 -0.0005546
0000a0 18 a3 e2 95 45 96 4d a2 f5 97 21 91 3e 8f 8d 0b
       -0.013855 -0.001436 -0.001531 -0.01231 -0.001943 -0.000626 -0.000442 0.0002304
0000b0 48 8a ac 83 8a 90 06 94 01 84 80 8d 86 9e 93 90
       -0.0001917 -5.6e-05 -0.000554 -0.000982 -6.11e-05 -0.0003357 -0.00637 -0.0005584
0000c0 98 8f ee a1 a0 92 73 8e 36 99 d1 8e 3a 92 19 97
       -0.0004635 -0.01158 -0.0008087 -0.0003936 -0.002544 -0.000416 -0.00076 -0.001733
0000d0 1b 93 97 a2 be 92 73 8d 26 97 73 8e 16 91 bd 97
       -0.0008674 -0.01287 -0.000823 -0.0003326 -0.001745 -0.0003936 -0.000621 -0.001889
0000e0 8b 93 35 94 17 95 b7 9e 49 82 22 96 a7 90 4f 97
       -0.000921 -0.001027 -0.001243 -0.006557 -3.487e-05 -0.001497 -0.000568 -0.001784
0000f0 04 87 27 93 e1 1c 8f 9b 13 99 67 a2 05 94 ae a0
       -0.00010705 -0.000873 0.004765 -0.00369 -0.002478 -0.012505 -0.000981 -0.00914

gen_flows/layer_1/conv2d/BiasAdd;gen_flows/layer_2/conv2d/Conv2D;gen_flows/layer_1/conv2d/Conv2D;gen_flows/layer_1/conv2d/bias f2 [128]
000000 08 99 06 9a 7e 91 47 21 a5 1c c9 a0 a8 19 19 9e
       -0.002457 -0.002941 -0.0006704 0.01031 0.004536 -0.009346 0.002762 -0.005955
000010 5a 9e 9c 22 7e 24 06 1f 5d 14 78 9a e4 1e f2 9f
       -0.006203 0.01291 0.01755 0.00686 0.001065 -0.003159 0.00673 -0.00776
000020 e1 a0 fb 19 12 1c 6e a0 94 18 a6 19 7a 22 d8 9e
       -0.00953 0.00292 0.003975 -0.00865 0.002235 0.002758 0.01265 -0.006683
000030 be 1c 1c 10 98 88 f1 1c 2b 9c 68 1c 9b 1c 62 9e
       0.00463 0.0005016 -0.0001402 0.004826 -0.00407 0.004303 0.004498 -0.006233
000040 20 9f 39 19 95 1c 91 98 0f a3 72 1c 92 a0 52 12
       -0.006958 0.00255 0.004475 -0.00223 -0.01379 0.00434 -0.00893 0.0007715
000050 55 a3 66 1f 6b 17 68 24 ca 98 aa 84 0d 96 97 1d
       -0.01432 0.007225 0.001811 0.01721 -0.002338 -7.117e-05 -0.001477 0.00546
000060 f4 82 58 9f e5 1c 04 9d a7 a2 68 1a 4e a0 0c a3
       -4.506e-05 -0.00717 0.00478 -0.004898 -0.01299 0.003128 -0.00841 -0.01376
000070 c0 a3 24 a4 e4 1b 06 96 38 9b e3 a1 54 20 11 89
       -0.01514 -0.01617 0.003853 -0.001471 -0.003525 -0.0115 0.00845 -0.0001546
000080 a3 92 87 9b fe a1 8b 9d e9 a2 cc a3 04 1d 25 19
       -0.00081 -0.003675 -0.0117 -0.005413 -0.0135 -0.01523 0.004898 0.002512
000090 e4 98 35 a0 ca 0e 03 1d 1b 9f 0d 94 82 a3 90 a0
       -0.002388 -0.00822 0.0004144 0.004894 -0.00694 -0.000989 -0.01466 -0.00891
0000a0 72 a1 4a 94 60 a1 48 99 c9 21 4a a5 cb 97 d4 1b
       -0.010635 -0.001047 -0.0105 -0.002579 0.0113 -0.02066 -0.001903 0.003822
0000b0 77 1a 97 a3 bd 17 c7 a0 84 16 7a 96 58 9c bc 94
       0.003157 -0.014824 0.001889 -0.00933 0.001591 -0.001581 -0.004242 -0.001156
0000c0 1e 21 f7 1d 7f 1f 78 10 af a0 72 9b fd 1d f7 16
       0.009995 0.005825 0.00732 0.0005455 -0.00915 -0.003635 0.005848 0.0017
0000d0 11 21 52 1e d4 1d d7 1b 60 21 ba 18 b9 a3 58 96
       0.009895 0.006172 0.00569 0.003828 0.0105 0.002308 -0.01508 -0.001549
0000e0 f5 a2 0d 9f 4f 99 00 a0 35 a0 cc 22 ac a6 be 17
       -0.01359 -0.006886 -0.002592 -0.007812 -0.00822 0.013275 -0.02606 0.00189
0000f0 68 9c a2 18 f2 9e 6a 90 1f a0 db 1f be 94 02 a1
       -0.004303 0.002262 -0.006783 -0.000539 -0.00805 0.00767 -0.001158 -0.00978

gen_flows/layer_2/conv2d/BiasAdd;gen_flows/layer_2/conv2d/Conv2D;gen_flows/layer_2/conv2d/bias f2 [128]
000000 95 9a 45 98 a6 98 cf 98 7e 9c e2 1c 3c 9e a7 18
       -0.003214 -0.002085 -0.00227 -0.002348 -0.004387 0.00477 -0.00609 0.002272
000010 f3 18 f9 9d 9d 99 79 a0 e7 97 39 98 1c 9c 64 9e
       0.002417 -0.005833 -0.00274 -0.008736 -0.001929 -0.002062 -0.004013 -0.00624
000020 f1 98 7a 16 7e 97 8a 9a 3c 14 64 9e 2a a0 2c 9a
       -0.002413 0.001581 -0.001829 -0.003193 0.001034 -0.00624 -0.00813 -0.003014
000030 43 96 3b 9c a9 13 1d 99 45 9e 7f 9d e0 03 bf 9e
       -0.001529 -0.00413 0.000935 -0.002497 -0.006123 -0.005367 5.91e-05 -0.006588
000040 5e a0 b1 a0 00 a1 92 96 57 1f bc a0 25 9b c8 a1
       -0.00853 -0.00916 -0.009766 -0.001604 0.007168 -0.00925 -0.003489 -0.01129
000050 ba 9b 1c 96 88 9e ce 97 0b 9c 40 94 f5 9d 74 9c
       -0.003773 -0.001492 -0.00638 -0.001905 -0.00395 -0.001038 -0.005817 -0.00435
000060 86 9d 62 9e 2d 9b ad a0 77 95 35 93 0e a1 d8 a3
       -0.005394 -0.006233 -0.003504 -0.00913 -0.001334 -0.00088 -0.00987 -0.01532
000070 c9 a0 a3 9f 8c 99 88 95 2c 9f 2f 9f 36 9f 02 a4
       -0.009346 -0.007458 -0.002708 -0.00135 -0.007004 -0.007015 -0.007042 -0.01566
000080 d3 94 d8 97 ec 9f 6d 11 8c 06 2e 9d 21 a3 9a a0
       -0.001178 -0.001915 -0.007736 0.0006623 9.99e-05 -0.00506 -0.01392 -0.00899
000090 51 9a 5e 14 4b 9b 7a 92 76 9c 39 9c 5d 13 b4 9c
       -0.003084 0.001066 -0.003561 -0.0007906 -0.004356 -0.004124 0.000899 -0.004593
0000a0 ff 98 fe 9c f4 a1 c5 9e 82 16 cc 9c 39 11 5f 9c
       -0.00244 -0.004875 -0.01163 -0.00661 0.001589 -0.004684 0.0006375 -0.00427
0000b0 16 9d 11 9c cd 9d 2a 9d 96 9c 38 9a 76 96 aa a0
       -0.004967 -0.00397 -0.005665 -0.005043 -0.00448 -0.003036 -0.001577 -0.00911
0000c0 d3 9b 33 9f 1d a1 7d 9f 19 8c 3a 98 44 a0 1e a1
       -0.00382 -0.00703 -0.00999 -0.007313 -0.00025 -0.002064 -0.00833 -0.009995
0000d0 db 9f c7 9d 33 15 fe 9f 6e 9f b6 a0 1b 9e 7e 9c
       -0.00767 -0.005642 0.001269 -0.007805 -0.007256 -0.0092 -0.005962 -0.004387
0000e0 cb 19 9f 9a 56 96 ab 98 98 96 02 9b 0e a4 6f a2
       0.002829 -0.003233 -0.001547 -0.00228 -0.00161 -0.003422 -0.01584 -0.012566
0000f0 1c a1 ee 09 5c 9e bd 08 1b 9d 4b 10 11 9d b9 9c
       -0.00998 0.000181 -0.00621 0.0001446 -0.004986 0.000524 -0.004948 -0.004612

gen_flows/layer_3/conv2d/BiasAdd;gen_flows/layer_5/conv2d/Conv2D;gen_flows/layer_3/conv2d/Conv2D;gen_flows/layer_3/conv2d/bias f2 [64]
000000 9e a0 b0 99 b7 9f f9 1a 82 a1 57 15 07 9a 04 a3
       -0.00902 -0.002777 -0.007534 0.003405 -0.01076 0.001304 -0.002943 -0.0137
000010 33 16 02 9d 0c a4 01 a2 18 a5 49 14 87 19 5b 9c
       0.0015135 -0.00489 -0.01581 -0.01173 -0.0199 0.001046 0.002699 -0.004253
000020 2a 1f 56 a5 11 18 51 a4 3e 1f 41 a1 b2 95 17 90
       0.006996 -0.02084 0.001986 -0.01686 0.007072 -0.01026 -0.00139 -0.0004992
000030 41 9f 8b 14 72 a1 a4 9d 71 a1 01 a1 58 1d 29 9c
       -0.007084 0.001109 -0.010635 -0.00551 -0.01063 -0.00977 0.00522 -0.004063
000040 6b 1d 83 a2 0a 9b 00 9a ec a0 fc a3 c8 9e 41 18
       0.00529 -0.01272 -0.003437 -0.00293 -0.00961 -0.015594 -0.006622 0.002077
000050 0b 9c f6 9e ec 9f e3 8d a6 a2 c8 93 71 a0 5f 9c
       -0.00395 -0.006798 -0.007736 -0.0003593 -0.012985 -0.00095 -0.008675 -0.00427
000060 9e 9c a1 9d 0d a0 e0 15 0d 9d c6 9f f6 95 3f 93
       -0.00451 -0.005497 -0.00791 0.001434 -0.004932 -0.00759 -0.001455 -0.0008845
000070 c1 a2 15 1d 0e 9d c9 15 be a0 63 9a 43 a4 ab a0
       -0.01319 0.004963 -0.004936 0.001412 -0.00926 -0.003119 -0.01665 -0.00912

gen_flows/layer_4/conv2d/BiasAdd;gen_flows/layer_5/conv2d/Conv2D;gen_flows/layer_4/conv2d/Conv2D;gen_flows/layer_4/conv2d/bias f2 [64]
000000 ff 8d ea 84 30 1e 64 a4 d4 9b 0e 17 4b a3 81 a5
       -0.000366 -7.5e-05 0.006042 -0.01715 -0.003822 0.001722 -0.014244 -0.0215
000010 cb 20 56 a4 64 18 09 22 69 0a 9a 22 ca 23 db 8c
       0.00936 -0.01694 0.002144 0.01179 0.0001956 0.01289 0.01521 -0.0002964
000020 fa 9d e3 9d 7c 1b c8 15 35 1b 26 12 a9 a0 73 9d
       -0.005836 -0.00575 0.003654 0.001411 0.00352 0.0007505 -0.0091 -0.00532
000030 ba 1c 2f a2 a2 9a be a2 57 a1 97 a1 db 1d 37 a2
       0.004616 -0.01208 -0.003239 -0.01317 -0.01043 -0.01092 0.00572 -0.01214
000040 98 a4 e6 9b df a2 fa a0 dc 11 19 23 e6 a1 09 a1
       -0.01794 -0.003857 -0.01342 -0.00972 0.0007153 0.01386 -0.01152 -0.009834
000050 6d a2 8b a2 18 1d de 94 2f 23 05 a7 df 9a 85 9d
       -0.01255 -0.01278 0.004974 -0.001188 0.01403 -0.02742 -0.003355 -0.00539
000060 d8 9e 43 1e cd 20 52 99 f3 a2 25 1e 4c a5 50 92
       -0.006683 0.006115 0.00938 -0.002598 -0.01357 0.006 -0.02069 -0.0007706
000070 d9 9c c8 9d d9 1d 57 1d 3d a5 fb 97 21 9d f0 a4
       -0.004734 -0.005646 0.00571 0.005215 -0.02046 -0.001948 -0.00501 -0.01929

gen_flows/layer_5/conv2d/BiasAdd;gen_flows/layer_5/conv2d/Conv2D;gen_flows/layer_5/conv2d/bias f2 [64]
000000 9e 20 e5 a5 bb 1c c7 9b e8 a1 21 21 f3 a3 9b a2
       0.00902 -0.02303 0.00462 -0.003798 -0.011536 0.01002 -0.015526 -0.0129
000010 bf 97 a0 97 e2 1c 45 a6 28 a1 ee a0 9d 20 d3 9d
       -0.001891 -0.001862 0.00477 -0.02449 -0.01007 -0.00963 0.00901 -0.005688
000020 ab 1a 7d 9c 5d 1f ea a5 1b a4 d9 1a 75 20 27 a4
       0.003256 -0.004383 0.00719 -0.0231 -0.01604 0.003344 0.008705 -0.01622
000030 0f 9c e1 9d 23 20 97 21 d9 94 11 18 eb 20 00 96
       -0.003963 -0.00574 0.00808 0.01092 -0.0011835 0.001986 0.009605 -0.001465
000040 8d a0 26 22 21 21 c8 a2 43 8f 7f 19 1b 99 fe 1f
       -0.00889 0.01201 0.01002 -0.013245 -0.0004432 0.002684 -0.002493 0.007805
000050 a2 9c 2b 1c e7 a0 39 9f 42 20 f7 08 94 24 28 a3
       -0.004524 0.00407 -0.009575 -0.007053 0.008316 0.0001515 0.01788 -0.01398
000060 26 21 d1 21 20 88 c7 9f e3 24 05 1e 98 22 ce 1d
       0.010056 0.01136 -0.0001259 -0.007595 0.01909 0.00588 0.01288 0.00567
000070 bf a1 3c 94 7e 21 f0 23 69 21 71 a0 7b a3 70 a4
       -0.01122 -0.001034 0.01073 0.0155 0.01057 -0.008675 -0.01461 -0.01733

gen_flows/layer_6/conv2d/BiasAdd;gen_flows/layer_7/conv2d/Conv2D;gen_flows/layer_6/conv2d/Conv2D;gen_flows/layer_6/conv2d/bias f2 [32]
000000 f6 a4 82 15 e1 1e 11 22 d9 9d 4c 1b 56 21 29 9f
       -0.01938 0.001345 0.006718 0.01185 -0.00571 0.003563 0.01042 -0.006992
000010 ee 19 05 24 68 22 ab 24 f1 a0 6c 22 9a 1f 46 25
       0.002895 0.0157 0.01251 0.01823 -0.00965 0.01254 0.007423 0.0206
000020 ef 23 9a 1c 9f 97 b2 1c 13 21 b8 1f b7 1c 00 24
       0.015495 0.004494 -0.001861 0.004585 0.00991 0.007538 0.004604 0.01563
000030 43 21 d9 a0 34 1c 9f a4 05 98 bd 23 0c a2 79 1c
       0.01028 -0.00947 0.004105 -0.01805 -0.001963 0.015114 -0.01181 0.004368

gen_flows/layer_7/conv2d/BiasAdd;gen_flows/layer_7/conv2d/Conv2D;gen_flows/layer_7/conv2d/bias f2 [32]
000000 80 21 44 15 56 21 f3 1d bd a2 ea 1e f8 1c bb 20
       0.01074 0.001286 0.01042 0.00581 -0.01316 0.006752 0.004852 0.00924
000010 ff 20 22 98 4b 1f d3 9c 06 a0 71 20 3b 21 c0 21
       0.00976 -0.002018 0.007122 -0.00471 -0.00786 0.008675 0.010216 0.01123
000020 0d 21 aa 23 69 1c 74 13 db a2 9e 21 c4 20 72 1d
       0.009865 0.01497 0.004307 0.00091 -0.01339 0.01097 0.00931 0.005318
000030 ea 9d a0 18 b0 20 f3 1c 8f 1e d0 20 8d 9c 49 92
       -0.005775 0.002258 0.009155 0.004833 0.006405 0.0094 -0.004444 -0.000767
